…
      "metadata": {
        "id": "architecture",
        "colab": {
          "base_uri": "https://localhost:8080/"
        },
        "outputId": "2df518ad-c2be-4ed1-99f9-63e4aafa8f50"
      },
      "execution_count": 6,
      "outputs": [
        {
          "output_type": "stream",
          "name": "stdout",
          "text": [
            "============================================================\n",
            "GENERATOR\n",
            "============================================================\n",
            "Generator(\n",
            "  (main): Sequential(\n",
            "    (0): ConvTranspose2d(128, 512, kernel_size=(4, 4), stride=(1, 1), bias=False)\n",
            "    (1): BatchNorm2d(512, eps=1e-05, momentum=0.1, affine=True, track_running_stats=True)\n",
            "    (2): ReLU(inplace=True)\n",
            "    (3): ConvTranspose2d(512, 256, kernel_size=(4, 4), stride=(2, 2), padding=(1, 1), bias=False)\n",
            "    (4): BatchNorm2d(256, eps=1e-05, momentum=0.1, affine=True, track_running_stats=True)\n",
            "    (5): ReLU(inplace=True)\n",
            "    (6): ConvTranspose2d(256, 128, kernel_size=(4, 4), stride=(2, 2), padding=(1, 1), bias=False)\n",
            "    (7): BatchNorm2d(128, eps=1e-05, momentum=0.1, affine=True, track_running_stats=True)\n",
            "    (8): ReLU(inplace=True)\n",
            "    (9): ConvTranspose2d(128, 64, kernel_size=(4, 4), stride=(2, 2), padding=(1, 1), bias=False)\n",
            "    (10): BatchNorm2d(64, eps=1e-05, momentum=0.1, affine=True, track_running_stats=True)\n",
            "    (11): ReLU(inplace=True)\n",
            "    (12): ConvTranspose2d(64, 3, kernel_size=(4, 4), stride=(2, 2), padding=(1, 1), bias=False)\n",
            "    (13): Tanh()\n",
            "  )\n",
            ")\n",
            "\n",
            "Total parameters: 3,806,080\n",
            "\n",
            "============================================================\n",
            "DISCRIMINATOR\n",
            "============================================================\n",
            "Discriminator(\n",
            "  (main): Sequential(\n",
            "    (0): Conv2d(3, 64, kernel_size=(4, 4), stride=(2, 2), padding=(1, 1), bias=False)\n",
            "    (1): LeakyReLU(negative_slope=0.2, inplace=True)\n",
            "    (2): Conv2d(64, 128, kernel_size=(4, 4), stride=(2, 2), padding=(1, 1), bias=False)\n",
            "    (3): BatchNorm2d(128, eps=1e-05, momentum=0.1, affine=True, track_running_stats=True)\n",
            "    (4): LeakyReLU(negative_slope=0.2, inplace=True)\n",
            "    (5): Conv2d(128, 256, kernel_size=(4, 4), stride=(2, 2), padding=(1, 1), bias=False)\n",
            "    (6): BatchNorm2d(256, eps=1e-05, momentum=0.1, affine=True, track_running_stats=True)\n",
            "    (7): LeakyReLU(negative_slope=0.2, inplace=True)\n",
            "    (8): Conv2d(256, 512, kernel_size=(4, 4), stride=(2, 2), padding=(1, 1), bias=False)\n",
            "    (9): BatchNorm2d(512, eps=1e-05, momentum=0.1, affine=True, track_running_stats=True)\n",
            "    (10): LeakyReLU(negative_slope=0.2, inplace=True)\n",
            "    (11): Conv2d(512, 1, kernel_size=(4, 4), stride=(1, 1), bias=False)\n",
            "    (12): Sigmoid()\n",
            "  )\n",
            ")\n",
            "\n",
            "Total parameters: 2,765,568\n"
          ]
        }
      ]
    },
    {
      "cell_type": "markdown",
      "metadata": {
        "id": "training_md"
      },
      "source": [
        "## 4. Training Loop\n",
        "\n",
        "The training follows the standard GAN minimax game:\n",
…
